…
base_lr: 0.01
display: 999999999
max_iter: 10000
lr_policy: "inv"
gamma: 0.0001
power: 0.75
momentum: 0.9
weight_decay: 0.0005
snapshot: 999999999
snapshot_prefix: "./models/"
I0120 14:50:17.284730   499 solver.cpp:80] Creating training net from train_net file: net-mnist-train.prototxt
I0120 14:50:17.284945   499 net.cpp:49] Initializing net from parameters: 
name: "Train"
state {
  phase: TRAIN
}
layer {
  name: "data"
  type: "MemoryData"
  top: "data"
  top: "label"
  memory_data_param {
    batch_size: 50
    channels: 1
    height: 28
    width: 28
  }
}
layer {
  name: "conv1"
  type: "Convolution"
  bottom: "data"
  top: "conv1"
  param {
    lr_mult: 1
  }
  param {
    lr_mult: 2
  }
  convolution_param {
    num_output: 20
    kernel_size: 5
    stride: 1
    weight_filler {
      type: "xavier"
    }
    bias_filler {
      type: "constant"
    }
  }
}
layer {
  name: "pool1"
  type: "Pooling"
  bottom: "conv1"
  top: "pool1"
  pooling_param {
    pool: MAX
    kernel_size: 2
    stride: 2
  }
}
layer {
  name: "conv2"
  type: "Convolution"
  bottom: "pool1"
  top: "conv2"
  param {
    lr_mult: 1
  }
  param {
    lr_mult: 2
  }
  convolution_param {
    num_output: 50
    kernel_size: 5
    stride: 1
    weight_filler {
      type: "xavier"
    }
    bias_filler {
      type: "constant"
    }
  }
}
layer {
  name: "pool2"
  type: "Pooling"
  bottom: "conv2"
  top: "pool2"
  pooling_param {
    pool: MAX
    kernel_size: 2
    stride: 2
  }
}
layer {
  name: "ip1"
  type: "InnerProduct"
  bottom: "pool2"
  top: "ip1"
  param {
    lr_mult: 1
  }
  param {
    lr_mult: 2
  }
  inner_product_param {
    num_output: 500
    weight_filler {
      type: "xavier"
    }
    bias_filler {
      type: "constant"
    }
  }
}
layer {
  name: "relu1"
  type: "ReLU"
  bottom: "ip1"
  top: "ip1"
}
layer {
  name: "ip2"
  type: "InnerProduct"
  bottom: "ip1"
  top: "ip2"
  param {
    lr_mult: 1
  }
  param {
    lr_mult: 2
  }
  inner_product_param {
    num_output: 10
    weight_filler {
      type: "xavier"
    }
    bias_filler {
      type: "constant"
    }
  }
}
layer {
  name: "accuracy"
  type: "Accuracy"
  bottom: "ip2"
  bottom: "label"
  top: "accuracy"
}
layer {
  name: "loss"
  type: "SoftmaxWithLoss"
  bottom: "ip2"
  bottom: "label"
  top: "loss"
}
I0120 14:50:17.284992   499 layer_factory.hpp:76] Creating layer data
I0120 14:50:17.285001   499 net.cpp:106] Creating Layer data
I0120 14:50:17.285006   499 net.cpp:411] data -> data
I0120 14:50:17.285013   499 net.cpp:411] data -> label
I0120 14:50:17.285154   499 net.cpp:150] Setting up data
I0120 14:50:17.285161   499 net.cpp:157] Top shape: 50 1 28 28 (39200)
I0120 14:50:17.285166   499 net.cpp:157] Top shape: 50 (50)
I0120 14:50:17.285168   499 net.cpp:165] Memory required for data: 157000
I0120 14:50:17.285172   499 layer_factory.hpp:76] Creating layer label_data_1_split
I0120 14:50:17.285177   499 net.cpp:106] Creating Layer label_data_1_split
I0120 14:50:17.285181   499 net.cpp:454] label_data_1_split <- label
I0120 14:50:17.285184   499 net.cpp:411] label_data_1_split -> label_data_1_split_0
I0120 14:50:17.285190   499 net.cpp:411] label_data_1_split -> label_data_1_split_1
I0120 14:50:17.285214   499 net.cpp:150] Setting up label_data_1_split
I0120 14:50:17.285219   499 net.cpp:157] Top shape: 50 (50)
I0120 14:50:17.285223   499 net.cpp:157] Top shape: 50 (50)
I0120 14:50:17.285225   499 net.cpp:165] Memory required for data: 157400
I0120 14:50:17.285228   499 layer_factory.hpp:76] Creating layer conv1
I0120 14:50:17.285234   499 net.cpp:106] Creating Layer conv1
I0120 14:50:17.285238   499 net.cpp:454] conv1 <- data
I0120 14:50:17.285241   499 net.cpp:411] conv1 -> conv1
I0120 14:50:17.285960   499 cudnn_conv_layer.cpp:194] Reallocating workspace storage: 20664
I0120 14:50:17.285979   499 net.cpp:150] Setting up conv1
I0120 14:50:17.285984   499 net.cpp:157] Top shape: 50 20 24 24 (576000)
I0120 14:50:17.285987   499 net.cpp:165] Memory required for data: 2461400
I0120 14:50:17.285995   499 layer_factory.hpp:76] Creating layer pool1
I0120 14:50:17.286001   499 net.cpp:106] Creating Layer pool1
I0120 14:50:17.286005   499 net.cpp:454] pool1 <- conv1
I0120 14:50:17.286010   499 net.cpp:411] pool1 -> pool1
I0120 14:50:17.286169   499 net.cpp:150] Setting up pool1
I0120 14:50:17.286176   499 net.cpp:157] Top shape: 50 20 12 12 (144000)
I0120 14:50:17.286180   499 net.cpp:165] Memory required for data: 3037400
I0120 14:50:17.286183   499 layer_factory.hpp:76] Creating layer conv2
I0120 14:50:17.286190   499 net.cpp:106] Creating Layer conv2
I0120 14:50:17.286192   499 net.cpp:454] conv2 <- pool1
I0120 14:50:17.286197   499 net.cpp:411] conv2 -> conv2
I0120 14:50:17.286859   499 cudnn_conv_layer.cpp:194] Reallocating workspace storage: 10272
I0120 14:50:17.286877   499 net.cpp:150] Setting up conv2
I0120 14:50:17.286882   499 net.cpp:157] Top shape: 50 50 8 8 (160000)
I0120 14:50:17.286886   499 net.cpp:165] Memory required for data: 3677400
I0120 14:50:17.286893   499 layer_factory.hpp:76] Creating layer pool2
I0120 14:50:17.286898   499 net.cpp:106] Creating Layer pool2
I0120 14:50:17.286901   499 net.cpp:454] pool2 <- conv2
I0120 14:50:17.286906   499 net.cpp:411] pool2 -> pool2
I0120 14:50:17.287060   499 net.cpp:150] Setting up pool2
I0120 14:50:17.287067   499 net.cpp:157] Top shape: 50 50 4 4 (40000)
I0120 14:50:17.287070   499 net.cpp:165] Memory required for data: 3837400
I0120 14:50:17.287073   499 layer_factory.hpp:76] Creating layer ip1
I0120 14:50:17.287080   499 net.cpp:106] Creating Layer ip1
I0120 14:50:17.287082   499 net.cpp:454] ip1 <- pool2
I0120 14:50:17.287087   499 net.cpp:411] ip1 -> ip1
I0120 14:50:17.289391   499 net.cpp:150] Setting up ip1
I0120 14:50:17.289402   499 net.cpp:157] Top shape: 50 500 (25000)
I0120 14:50:17.289404   499 net.cpp:165] Memory required for data: 3937400
I0120 14:50:17.289412   499 layer_factory.hpp:76] Creating layer relu1
I0120 14:50:17.289417   499 net.cpp:106] Creating Layer relu1
I0120 14:50:17.289420   499 net.cpp:454] relu1 <- ip1
I0120 14:50:17.289425   499 net.cpp:397] relu1 -> ip1 (in-place)
I0120 14:50:17.289569   499 net.cpp:150] Setting up relu1
I0120 14:50:17.289577   499 net.cpp:157] Top shape: 50 500 (25000)
I0120 14:50:17.289579   499 net.cpp:165] Memory required for data: 4037400
I0120 14:50:17.289582   499 layer_factory.hpp:76] Creating layer ip2
I0120 14:50:17.289597   499 net.cpp:106] Creating Layer ip2
I0120 14:50:17.289600   499 net.cpp:454] ip2 <- ip1
I0120 14:50:17.289604   499 net.cpp:411] ip2 -> ip2
I0120 14:50:17.289700   499 net.cpp:150] Setting up ip2
I0120 14:50:17.289705   499 net.cpp:157] Top shape: 50 10 (500)
I0120 14:50:17.289707   499 net.cpp:165] Memory required for data: 4039400
I0120 14:50:17.289712   499 layer_factory.hpp:76] Creating layer ip2_ip2_0_split
I0120 14:50:17.289716   499 net.cpp:106] Creating Layer ip2_ip2_0_split
I0120 14:50:17.289719   499 net.cpp:454] ip2_ip2_0_split <- ip2
I0120 14:50:17.289723   499 net.cpp:411] ip2_ip2_0_split -> ip2_ip2_0_split_0
I0120 14:50:17.289728   499 net.cpp:411] ip2_ip2_0_split -> ip2_ip2_0_split_1
I0120 14:50:17.289751   499 net.cpp:150] Setting up ip2_ip2_0_split
I0120 14:50:17.289754   499 net.cpp:157] Top shape: 50 10 (500)
I0120 14:50:17.289757   499 net.cpp:157] Top shape: 50 10 (500)
I0120 14:50:17.289760   499 net.cpp:165] Memory required for data: 4043400
I0120 14:50:17.289762   499 layer_factory.hpp:76] Creating layer accuracy
I0120 14:50:17.289767   499 net.cpp:106] Creating Layer accuracy
I0120 14:50:17.289769   499 net.cpp:454] accuracy <- ip2_ip2_0_split_0
I0120 14:50:17.289773   499 net.cpp:454] accuracy <- label_data_1_split_0
I0120 14:50:17.289777   499 net.cpp:411] accuracy -> accuracy
…
